data.pth (torch, 5015 bytes, 6 tensors)

l1.weight f4 [8, 54]
0.1335151 0.5890171 0.096613444 -0.20832835 -0.21872267 -0.35539868 0.50259674 0.1730335
0.29077202 -0.030684644 -0.22300912 -0.071566746 0.18410905 -0.004249455 0.44117463 -0.030838102
-0.13262358 -0.35533 -0.17585771 -0.35516867 0.28549096 -0.3564866 -0.35518253 -0.34874082
-0.046462417 -0.068169765 -0.16722097 0.6585931 0.027719798 0.62357426 -0.28771764 -0.053029723
-0.085441105 0.112755805 0.70935786 -0.17970113 -0.14166942 0.31598398 0.5155449 0.36100066
-0.279771 -0.3985753 -0.014970457 0.42886707 0.06516196 0.77549624 0.88010573 0.50023717
-0.079610385 -0.29675013 -0.21080759 -0.40843585 0.2821297 0.21226117 0.8035633 0.6813707
0.36576566 0.2016233 0.21855515 -0.6496855 0.7009245 0.28389692 0.34274262 0.18032156
0.052389864 0.5286402 0.050264113 0.52328944 0.5055845 0.36091897 0.19253589 -0.6498324
-0.36891034 0.23442683 0.6385841 -0.08840356 -0.043430466 0.27312434 0.48938948 0.18000595
-0.2711769 0.5715538 -0.13352056 0.38419577 -0.527582 0.5004249 0.47628412 0.4673207
0.5652477 0.1982276 -0.10487327 0.33470488 0.63485265 0.68538743 -0.4055447 -0.61397403
0.32084697 0.3703124 0.4159687 0.4601939 1.0040962 0.46946672 0.010618163 -0.3693813
0.30578828 -0.34320584 0.7341639 0.2834393 0.51334584 0.632444 0.22052915 -0.30102885
-0.063745484 -0.4325498 -0.10980373 0.43033347 0.48222503 0.30071452 -0.23078614 -0.16501361
0.49053994 0.034231696 0.38626218 -0.1976111 -0.20170262 -0.43244004 0.47132686 -0.4324663
0.43943924 -0.432476 -0.43239018 -0.45095447 -0.34469512 -0.2247125 0.73752326 0.53679883
0.60812885 0.56367296 -0.42130128 0.033731177 0.3774394 0.34116995 0.5269486 -0.10969321
0.495446 0.5409811 -0.06664909 -0.116356865 -0.38326487 0.68773407 -0.09922308 0.53605086
0.046582278 0.66187114 0.93254703 0.37213242 0.09321786 0.7555352 -0.10533259 0.48207352
-0.0388415 0.37240955 0.093240455 0.101724334 0.5358951 0.37888 0.630845 -0.32604998
0.6103095 0.3707712 0.29326263 0.38907543 0.5414751 -0.19822367 0.52493924 -0.29485503
0.016500745 -0.3364053 0.49525833 -0.3365257 0.49957025 0.8122648 -0.15814875 0.71869487
0.5702592 0.083336785 0.44746917 0.33287436 0.5334092 -0.16308731 0.22704183 -0.28701568
-0.3391409 -0.2816278 0.23881908 0.5298499 0.257545 -0.32754514 0.23774092 0.465437
0.79329723 0.674988 -0.37178493 0.46382967 -0.25964916 -0.029643083 0.3003725 0.2436539
-0.1407552 -0.06826568 0.4725258 0.66936564 -0.1304068 0.41718528 0.610633 0.4264833
0.15473644 -0.11331972 0.3278558 0.14302665 0.59970176 -0.3725652 0.334353 0.2587133
0.4529692 0.4241476 0.4348307 0.019548474 0.6091087 0.1146122 0.012454014 -0.1314642
0.3109684 -0.37687767 0.41766864 0.7770751 0.2885766 0.5367222 0.73580664 0.2195733
-0.13177402 0.24566643 0.48211974 -0.29365826 0.36661595 -0.28098187 -0.33151862 0.022198027
0.14565992 0.40215746 0.035782088 -0.09255385 0.35470912 0.2944176 0.27347 0.29985636
00000000: 2fb8 083e d3c9 163f 45dd c53d 0754 55be
00000010: d6f8 5fbe d1f6 b5be 2eaa 003f b22f 313e
00000020: 12e0 943e 5d5e fbbc 815c 64be 9691 92bd
00000030: 1587 3c3e 033f 8bbb a4e1 e13e 30a0 fcbc
00000040: 7ace 07be d0ed b5be 0b14 34be abd8 b5be
00000050: df2b 923e 6985 b6be 7cda b5be 288e b2be
00000060: 604f 3ebd 979c 8bbd f93b 2bbe 8f99 283f
00000070: a114 e33c 90a2 1f3f ba4f 93be b235 59bd
00000080: bffb aebd 84ec e63d 7a98 353f 9303 38be
00000090: ca11 11be a7c8 a13e c0fa 033f 14d5 b83e
000000a0: 253e 8fbe 1012 ccbe a646 75bc 7794 db3e
000000b0: a273 853d ec86 463f 9c4e 613f 8b0f 003f
000000c0: c50a a3bd a2ef 97be f2dd 57be 811e d1be
000000d0: 4e73 903e fe5a 593e 53b6 4d3f 4f6e 2e3f
000000e0: a345 bb3e 5776 4e3e eccc 5f3e ca51 26bf
000000f0: ca6f 333f f05a 913e f67b af3e 37a6 383e
00000100: c196 563d f754 073f bee1 4d3d 4cf6 053f
00000110: fc6d 013f 5fca b83e 2128 453e 6b5b 26bf
00000120: d1e1 bcbe 960d 703e 3f7a 233f ed0c b5bd
00000130: 25e4 31bd f4d6 8b3e 4291 fa3e 7b53 383e
00000140: b3d7 8abe 5a51 123f 9db9 08be 4fb5 c43e
00000150: 9d0f 07bf d91b 003f 83db f33e a944 ef3e
00000160: 13b4 103f 2dfc 4a3e ccc7 d6bd 705e ab3e
00000170: b485 223f 8d75 2f3f 8ea3 cfbe 672d 1dbf
00000180: 0e46 a43e 9699 bd3e d9f9 d43e 899e eb3e
00000190: 3986 803f f15d f03e cef7 2d3c 8c1f bdbe
000001a0: 4890 9c3e adb8 afbe 2af2 3b3f f51e 913e
000001b0: a26a 033f dae7 213f 65d2 613e 7420 9abe
000001c0: fe8c 82bd 2b77 ddbe c7e0 e0bd ab54 dc3e
000001d0: 33e6 f63e 41f7 993e 3453 6cbe 54f9 28be
000001e0: 0d28 fb3e 8936 0c3d 28c4 c53e 905a 4abe
000001f0: 228b 4ebe c868 ddbe c151 f13e 396c ddbe
00000200: 2efe e03e 7f6d ddbe 3f62 ddbe 81e3 e6be
00000210: e17b b0be 091b 66be 53ce 3c3f a66b 093f
00000220: 55ae 1b3f df4c 103f cdb4 d7be b429 0a3d
00000230: bd3f c13e d4ad ae3e 1ae6 063f d5a6 e0bd
00000240: 19ab fd3e bd7d 0a3f 517f 88bd 824c eebd
00000250: 4b3b c4be 570f 303f 7835 cbbd a13a 093f
00000260: 0fcd 3e3d 6370 293f 67bb 6e3f 2488 be3e
00000270: 01e9 be3d c16a 413f 9db8 d7bd 57d2 f63e
00000280: 4418 1fbd 77ac be3e daf4 be3d d954 d03d
00000290: 6c30 093f 8ffc c13e 0f7f 213f 06f0 a6be
000002a0: 3e3d 1c3f b9d5 bd3e 8526 963e e534 c73e
000002b0: 1d9e 0a3f 25fb 4abe 6b62 063f 3df7 96be
000002c0: 922c 873c 513d acbe 8092 fd3e 194d acbe
000002d0: acc7 ff3e 96f0 4f3f bff1 21be 63fc 373f
000002e0: 82fc 113f 7aac aa3d ae1a e53e 826e aa3e
000002f0: 818d 083f 5c00 27be a77d 683e b8f3 92be
00000300: e0a3 adbe 8531 90be fd8c 743e 3ea4 073f
00000310: f0dc 833e ffb3 a7be 5b72 733e c24d ee3e
00000320: 8715 4b3f 03cc 2c3f 985a bebe 157b ed3e
00000330: bcf0 84be 0dd6 f2bc 6dca 993e 6880 793e
00000340: 2222 10be e0ce 8bbd e7ee f13e 8c5b 2b3f
00000350: 5c89 05be 4f99 d53e 7252 1c3f 055c da3e
00000360: 3b73 1e3e 2b14 e8bd b7dc a73e 9475 123e
00000370: 0e86 193f dec0 bebe 5130 ab3e 1276 843e
00000380: 94eb e73e e029 d93e 21a2 de3e 1f24 a03c
00000390: 8cee 1b3f cdb9 ea3d ec0b 4c3c 8d9e 06be
000003a0: 4037 9f3e 1cf6 c0be aad8 d53e 65ee 463f
000003b0: 50c0 933e a066 093f d35d 3c3f d3d7 603e
000003c0: c5ef 06be fb8f 7b3e 66d8 f63e 605a 96be
000003d0: 16b5 bb3e dbdc 8fbe cfbc a9be a3d8 b53c
000003e0: e027 153e 95e7 cd3e 3d90 123d df8c bdbd
000003f0: 6f9c b53e e7bd 963e 4304 8c3e c686 993e

l1.bias f4 [8]
0.35517377 0.6496552 0.43243527 0.70339364 0.5519409 0.8223737 0.94874835 0.4539783
00000000: 56d9 b53e ce4f 263f 2868 dd3e 9b11 343f
00000010: 004c 0d3f 1587 523f 2ce1 723f d86f e83e

l2.weight f4 [8, 8]
-0.057566084 0.9941749 0.116037086 0.63982373 0.9567372 1.660203 -0.6314765 -1.0590925
-0.845451 -0.411271 -0.38348082 1.1874999 1.0484151 -0.18677834 0.9913104 -0.036818486
-0.9787073 -0.24350281 -1.0524604 0.73706603 0.5199345 0.40585303 1.2834975 0.24113132
-0.39859653 -0.032080725 0.07052655 1.2414421 0.9881409 -0.2939523 -0.011566387 -0.44456786
1.1741289 1.0553032 1.5654906 0.9656013 0.78584975 -0.87452966 0.6998862 1.2274536
-0.07560453 -0.18360275 -0.13223755 -0.04680702 0.108814895 -0.32317507 -0.25099665 0.23061982
-0.741439 -1.0637684 0.85046226 0.75520474 0.672128 -0.47801068 -0.18715219 -0.7405799
0.074921444 -0.32488704 0.18911713 -0.2059663 0.081633896 0.007148402 0.06380833 -0.24568461
00000000: 6aca 6bbd 3f82 7e3f daa4 ed3d 7dcb 233f
00000010: bbec 743f 8881 d43f 72a8 21bf 5890 87bf
00000020: 7a6f 58bf 1d92 d2be 9957 c4be ffff 973f
00000030: 7732 863f d242 3fbe 85c6 7d3f fbce 16bd
00000040: 908c 7abf cd58 79be 06b7 86bf 5cb0 3c3f
00000050: 6d1a 053f f8cb cf3e a549 a43f 21eb 763e
00000060: d814 ccbe 1467 03bd 3970 903d 93e7 9e3f
00000070: cdf6 7c3f ea80 96be f180 3dbc 669e e3be
00000080: db49 963f 2d14 873f ff61 c83f a631 773f
00000090: 732d 493f 2de1 5fbf be2b 333f 331d 9d3f
000000a0: 8cd6 9abd 5c02 3cbe 4869 07be b8b8 3fbd
000000b0: 58da de3d 3477 a5be a282 80be 9a27 6c3e
000000c0: f2ce 3dbf 9029 88bf e5b7 593f 1955 413f
000000d0: 9510 2c3f d1bd f4be d3a4 3fbe a596 3dbf
000000e0: 6a70 993d 9857 a6be eca7 413e d4e8 52be
000000f0: ac2f a73d 243d ea3b f1ad 823d bf94 7bbe

l2.bias f4 [8]
0.47163734 0.33385262 1.267683 -0.1622559 -0.09908999 -0.17132382 -0.17344822 -0.22399949
00000000: 737a f13e bbee aa3e 7043 a23f 6926 26be
00000010: b1ef cabd 836f 2fbe 699c 31be 1f60 65be

l3.weight f4 [7, 8]
0.7456298 -0.8762083 0.065757826 -1.420381 -1.2726967 0.201018 -0.53286743 0.23520173
-1.6496719 -0.11660424 -1.085279 -1.3199763 0.8803378 -0.09498429 -0.49214643 -0.21221326
-2.0111864 0.55848837 1.4418702 -2.0236216 -0.09464032 0.2607372 -0.24256398 -0.24204841
0.019492846 0.2416617 0.45437515 0.46432966 -0.61908007 -0.012430131 -0.93534267 -0.14005111
-0.8689207 0.07363541 -0.26267907 0.5858541 -0.18629915 0.22803232 0.94697905 -0.1691517
-1.3841249 0.22428817 0.121351525 0.10410413 0.4554707 -0.07535574 -0.9962772 0.13771635
0.3703747 -0.94448435 -1.0053424 -0.9630182 0.28943962 0.29129735 -0.4271418 -0.058958765
00000000: 98e1 3e3f 304f 60bf 0aac 863d 0bcf b5bf
00000010: bae7 a2bf aad7 4d3e 006a 08bf b9d8 703e
00000020: 7328 d3bf 34ce eebd 6cea 8abf fcf4 a8bf
00000030: d15d 613f 2087 c2bd 9efa fbbe 6f4e 59be
00000040: 47b7 00c0 18f9 0e3f 348f b83f 0483 01c0
00000050: c9d2 c1bd 597f 853e b162 78be 8adb 77be
00000060: 76af 9f3c 2a76 773e dca3 e83e 9ebc ed3e
00000070: 087c 1ebf c0a7 4bbc 9e72 6fbf 8f69 0fbe
00000080: 9671 5ebf 29ce 963d df7d 86be 89fa 153f
00000090: 34c5 3ebe 4e81 693e 386d 723f 1a36 2dbe
000000a0: 012b b1bf ccab 653e 2687 f83d 8c34 d53d
000000b0: 7533 e93e 1c54 9abd 060c 7fbf 8405 0d3e
000000c0: c1a1 bd3e bac9 71bf 0faf 80bf 5c88 76bf
000000d0: 6e31 943e ed24 953e 54b2 dabe bf7e 71bd

l3.bias f4 [7]
0.05588746 -0.26507422 0.33253908 -0.08502148 -0.3764888 -0.6573058 0.41243377
00000000: 40ea 643d cfb7 87be 9042 aa3e be1f aebd
00000010: 24c3 c0be 3145 28bf 852a d33e
